…
[conda] mkl                       2020.2                      256  
[conda] mkl-service               2.3.0            py36he8ac12f_0  
[conda] mkl_fft                   1.3.0            py36h54f3939_0  
[conda] mkl_random                1.1.1            py36h0573a6f_0  
[conda] numpy                     1.19.2           py36h54aff64_0  
[conda] numpy-base                1.19.2           py36hfa32c7d_0  
[conda] pytorch                   1.6.0           py3.6_cuda10.1.243_cudnn7.6.3_0    pytorch
**********

==========
S3R(
  (video_embedding): Sequential(
    (0): Aggregate(
      (conv_1): Sequential(
        (0): Conv1d(2048, 512, kernel_size=(3,), stride=(1,), padding=(1,))
        (1): GroupNorm(8, 512, eps=1e-05, affine=True)
        (2): ReLU()
      )
      (conv_2): Sequential(
        (0): Conv1d(2048, 512, kernel_size=(3,), stride=(1,), padding=(2,), dilation=(2,))
        (1): GroupNorm(8, 512, eps=1e-05, affine=True)
        (2): ReLU()
      )
      (conv_3): Sequential(
        (0): Conv1d(2048, 512, kernel_size=(3,), stride=(1,), padding=(4,), dilation=(4,))
        (1): GroupNorm(8, 512, eps=1e-05, affine=True)
        (2): ReLU()
      )
      (conv_4): Sequential(
        (0): Conv1d(2048, 512, kernel_size=(1,), stride=(1,), bias=False)
        (1): ReLU()
      )
      (conv_5): Sequential(
        (0): Conv1d(2048, 2048, kernel_size=(3,), stride=(1,), padding=(1,), bias=False)
        (1): GroupNorm(8, 2048, eps=1e-05, affine=True)
        (2): ReLU()
      )
      (non_local): NonLocalBlock1D(
        (value): Conv1d(512, 256, kernel_size=(1,), stride=(1,))
        (alter): Sequential(
          (0): Conv1d(256, 512, kernel_size=(1,), stride=(1,))
          (1): BatchNorm1d(512, eps=1e-05, momentum=0.1, affine=True, track_running_stats=True)
        )
        (query): Conv1d(512, 256, kernel_size=(1,), stride=(1,))
        (key): Conv1d(512, 256, kernel_size=(1,), stride=(1,))
      )
    )
    (1): Dropout(p=0.7, inplace=False)
  )
  (macro_embedding): Sequential(
    (0): Aggregate(
      (conv_1): Sequential(
        (0): Conv1d(2048, 512, kernel_size=(3,), stride=(1,), padding=(1,))
        (1): GroupNorm(8, 512, eps=1e-05, affine=True)
        (2): ReLU()
      )
      (conv_2): Sequential(
        (0): Conv1d(2048, 512, kernel_size=(3,), stride=(1,), padding=(2,), dilation=(2,))
        (1): GroupNorm(8, 512, eps=1e-05, affine=True)
        (2): ReLU()
      )
      (conv_3): Sequential(
        (0): Conv1d(2048, 512, kernel_size=(3,), stride=(1,), padding=(4,), dilation=(4,))
        (1): GroupNorm(8, 512, eps=1e-05, affine=True)
        (2): ReLU()
      )
      (conv_4): Sequential(
        (0): Conv1d(2048, 512, kernel_size=(1,), stride=(1,), bias=False)
        (1): ReLU()
      )
      (conv_5): Sequential(
        (0): Conv1d(2048, 2048, kernel_size=(3,), stride=(1,), padding=(1,), bias=False)
        (1): GroupNorm(8, 2048, eps=1e-05, affine=True)
        (2): ReLU()
      )
      (non_local): NonLocalBlock1D(
        (value): Conv1d(512, 256, kernel_size=(1,), stride=(1,))
        (alter): Sequential(
          (0): Conv1d(256, 512, kernel_size=(1,), stride=(1,))
          (1): BatchNorm1d(512, eps=1e-05, momentum=0.1, affine=True, track_running_stats=True)
        )
        (query): Conv1d(512, 256, kernel_size=(1,), stride=(1,))
        (key): Conv1d(512, 256, kernel_size=(1,), stride=(1,))
      )
    )
    (1): Dropout(p=0.7, inplace=False)
  )
  (en_normal): enNormal(
    (en_normal_module): enNormalModule(
      (query_embedding): Linear(in_features=2048, out_features=512, bias=True)
      (cache_embedding): Linear(in_features=2048, out_features=512, bias=True)
      (value_embedding): Linear(in_features=2048, out_features=2048, bias=True)
    )
  )
  (de_normal): deNormal(
    (channel_attention): ChannelAttention(
      (channel_gate): ChannelGate(
        (mlp): Sequential(
          (0): Flatten()
          (1): Linear(in_features=2048, out_features=128, bias=True)
          (2): ReLU()
          (3): Linear(in_features=128, out_features=2048, bias=True)
        )
      )
    )
  )
  (video_projection): Sequential(
    (0): Conv1d(2048, 2048, kernel_size=(3,), stride=(1,), padding=(1,))
    (1): GroupNorm(8, 2048, eps=1e-05, affine=True)
    (2): ReLU()
  )
  (macro_projection): Sequential(
    (0): Conv1d(2048, 2048, kernel_size=(3,), stride=(1,), padding=(1,))
    (1): GroupNorm(8, 2048, eps=1e-05, affine=True)
    (2): ReLU()
  )
  (video_classifier): Sequential(
    (0): Linear(in_features=2048, out_features=512, bias=True)
    (1): ReLU()
    (2): Dropout(p=0.7, inplace=False)
    (3): Linear(in_features=512, out_features=128, bias=True)
    (4): ReLU()
    (5): Dropout(p=0.7, inplace=False)
    (6): Linear(in_features=128, out_features=1, bias=True)
    (7): Sigmoid()
  )
  (macro_classifier): GlobalStatistics(
    (flat): Flatten()
    (mlp): Sequential(
      (0): Linear(in_features=2048, out_features=512, bias=True)
      (1): ReLU()
      (2): Dropout(p=0.7, inplace=False)
      (3): Linear(in_features=512, out_features=128, bias=True)
      (4): ReLU()
      (5): Dropout(p=0.7, inplace=False)
      (6): Linear(in_features=128, out_features=1, bias=True)
    )
  )
  (drop_out): Dropout(p=0.7, inplace=False)
)
==========


    [1m[35mVideo Anomaly Detection[0m
        - dataset:	 [4m[1m[37mshanghaitech[0m
        - version:	 vad-ws-0.2
        - description:	 [1m[32mS3R video anomaly detection[0m
        - initial AUC score: 44.660 %
        - initial learning rate: 0.0010
    
+-------------------------------------------------------------------------------------------------------+
…
